60000 train samples
10000 test samples

____________________________________________________________________________________________________
Layer (type)                     Output Shape          Param #     Connected to
====================================================================================================
dense_1 (Dense)                  (None, 512)           401920      dense_input_1[0][0]
____________________________________________________________________________________________________
activation_1 (Activation)        (None, 512)           0           dense_1[0][0]
____________________________________________________________________________________________________
dropout_1 (Dropout)              (None, 512)           0           activation_1[0][0]
____________________________________________________________________________________________________
dense_2 (Dense)                  (None, 512)           262656      dropout_1[0][0]
____________________________________________________________________________________________________
activation_2 (Activation)        (None, 512)           0           dense_2[0][0]
____________________________________________________________________________________________________
dropout_2 (Dropout)              (None, 512)           0           activation_2[0][0]
____________________________________________________________________________________________________
dense_3 (Dense)                  (None, 10)            5130        dropout_2[0][0]
____________________________________________________________________________________________________
activation_3 (Activation)        (None, 10)            0           dense_3[0][0]
====================================================================================================
Total params: 669,706
Trainable params: 669,706
Non-trainable params: 0
____________________________________________________________________________________________________
Train on 60000 samples, validate on 10000 samples
Epoch 1/20
I c:\tf_jenkins\home\workspace\release-win\device\gpu\os\windows\tensorflow\core\common_runtime\gpu\gpu_device.cc:885] Found device 0 with properties:
…
